…
[2026-02-02 22:48:38 Pytorch_CUDA_mix_BCHW_0] (base_trainer.py 199): INFO Resuming training from epoch 1 / 50 ...
[2026-02-02 22:48:38 Pytorch_CUDA_mix_BCHW_0] (trainer.py 86): INFO Train metrics: ['total_loss', 'snr', 'lsd', 'lsd_hf', 'lsd_lf', 'stoi']
[2026-02-02 22:48:42 Pytorch_CUDA_mix_BCHW_0] (trainer.py 67): INFO Model summary: ====================================================================================================
Layer (type:depth-idx)                             Output Shape              Param #
====================================================================================================
DualStreamInteractiveMambaUNet                     [1, 1, 122640]            --
├─Sequential: 1-1                                  [1, 16, 128, 128]         --
│    └─Conv2d: 2-1                                 [1, 8, 256, 256]          80
│    └─Identity: 2-2                               [1, 8, 256, 256]          --
│    └─LayerNorm2d: 2-3                            [1, 8, 256, 256]          16
│    └─Identity: 2-4                               [1, 8, 256, 256]          --
│    └─GELU: 2-5                                   [1, 8, 256, 256]          --
│    └─Conv2d: 2-6                                 [1, 16, 128, 128]         1,168
│    └─Identity: 2-7                               [1, 16, 128, 128]         --
│    └─LayerNorm2d: 2-8                            [1, 16, 128, 128]         32
├─Sequential: 1-2                                  [1, 16, 128, 128]         --
│    └─Conv2d: 2-9                                 [1, 8, 256, 256]          80
│    └─Identity: 2-10                              [1, 8, 256, 256]          --
│    └─LayerNorm2d: 2-11                           [1, 8, 256, 256]          16
│    └─Identity: 2-12                              [1, 8, 256, 256]          --
│    └─GELU: 2-13                                  [1, 8, 256, 256]          --
│    └─Conv2d: 2-14                                [1, 16, 128, 128]         1,168
│    └─Identity: 2-15                              [1, 16, 128, 128]         --
│    └─LayerNorm2d: 2-16                           [1, 16, 128, 128]         32
├─ModuleList: 1-9                                  --                        (recursive)
│    └─Sequential: 2-17                            [1, 32, 64, 64]           --
│    │    └─Sequential: 3-1                        [1, 32, 64, 64]           1,574
├─ModuleList: 1-10                                 --                        (recursive)
│    └─Sequential: 2-18                            [1, 32, 64, 64]           --
│    │    └─Sequential: 3-2                        [1, 32, 64, 64]           1,574
├─ModuleList: 1-9                                  --                        (recursive)
│    └─Sequential: 2-19                            [1, 64, 32, 32]           --
│    │    └─Sequential: 3-3                        [1, 64, 32, 32]           5,720
├─ModuleList: 1-10                                 --                        (recursive)
│    └─Sequential: 2-20                            [1, 64, 32, 32]           --
│    │    └─Sequential: 3-4                        [1, 64, 32, 32]           5,720
├─ModuleList: 1-9                                  --                        (recursive)
│    └─Sequential: 2-21                            [1, 128, 16, 16]          --
│    │    └─Sequential: 3-5                        [1, 128, 16, 16]          21,728
├─ModuleList: 1-10                                 --                        (recursive)
│    └─Sequential: 2-22                            [1, 128, 16, 16]          --
│    │    └─Sequential: 3-6                        [1, 128, 16, 16]          21,728
├─ModuleList: 1-9                                  --                        (recursive)
│    └─Sequential: 2-23                            [1, 128, 16, 16]          --
│    │    └─Sequential: 3-7                        [1, 128, 16, 16]          34,560
├─ModuleList: 1-10                                 --                        (recursive)
│    └─Sequential: 2-24                            [1, 128, 16, 16]          --
│    │    └─Sequential: 3-8                        [1, 128, 16, 16]          34,560
├─ModuleList: 1-13                                 --                        (recursive)
│    └─Sequential: 2-25                            [1, 128, 16, 16]          --
│    │    └─Identity: 3-9                          [1, 128, 16, 16]          --
│    │    └─Sequential: 3-10                       [1, 128, 16, 16]          --
│    │    └─Identity: 3-11                         [1, 128, 16, 16]          --
├─ModuleList: 1-12                                 --                        135,072
│    └─Sequential: 2-26                            [1, 128, 16, 16]          --
│    │    └─Identity: 3-12                         [1, 128, 16, 16]          --
│    │    └─Sequential: 3-13                       [1, 128, 16, 16]          --
│    │    └─Identity: 3-14                         [1, 128, 16, 16]          --
├─ModuleList: 1-13                                 --                        (recursive)
│    └─Sequential: 2-27                            [1, 64, 32, 32]           --
│    │    └─Conv2d: 3-15                           [1, 128, 16, 16]          32,896
│    │    └─Sequential: 3-16                       [1, 128, 16, 16]          36,352
│    │    └─PatchExpanding: 3-17                   [1, 64, 32, 32]           32,896
│    └─Sequential: 2-28                            [1, 64, 32, 32]           (recursive)
│    │    └─Conv2d: 3-18                           [1, 128, 16, 16]          (recursive)
│    │    └─Sequential: 3-19                       [1, 128, 16, 16]          (recursive)
│    │    └─PatchExpanding: 3-20                   [1, 64, 32, 32]           (recursive)
│    └─Sequential: 2-29                            [1, 32, 64, 64]           --
│    │    └─Conv2d: 3-21                           [1, 64, 32, 32]           8,256
│    │    └─Sequential: 3-22                       [1, 64, 32, 32]           9,600
│    │    └─PatchExpanding: 3-23                   [1, 32, 64, 64]           8,256
│    └─Sequential: 2-30                            [1, 32, 64, 64]           (recursive)
│    │    └─Conv2d: 3-24                           [1, 64, 32, 32]           (recursive)
│    │    └─Sequential: 3-25                       [1, 64, 32, 32]           (recursive)
│    │    └─PatchExpanding: 3-26                   [1, 32, 64, 64]           (recursive)
│    └─Sequential: 2-31                            [1, 16, 128, 128]         --
│    │    └─Conv2d: 3-27                           [1, 32, 64, 64]           2,080
│    │    └─Sequential: 3-28                       [1, 32, 64, 64]           2,656
│    │    └─PatchExpanding: 3-29                   [1, 16, 128, 128]         2,080
│    └─Sequential: 2-32                            [1, 16, 128, 128]         (recursive)
│    │    └─Conv2d: 3-30                           [1, 32, 64, 64]           (recursive)
│    │    └─Sequential: 3-31                       [1, 32, 64, 64]           (recursive)
│    │    └─PatchExpanding: 3-32                   [1, 16, 128, 128]         (recursive)
├─Sequential: 1-14                                 [1, 1, 512, 512]          --
│    └─Sequential: 2-33                            [1, 8, 256, 256]          --
│    │    └─Conv2d: 3-33                           [1, 16, 128, 128]         528
│    │    └─Sequential: 3-34                       [1, 16, 128, 128]         1,488
│    │    └─PatchExpanding: 3-35                   [1, 8, 256, 256]          528
│    └─Sequential: 2-34                            [1, 4, 512, 512]          --
│    │    └─Identity: 3-36                         [1, 8, 256, 256]          --
│    │    └─Sequential: 3-37                       [1, 8, 256, 256]          496
│    │    └─PatchExpanding: 3-38                   [1, 4, 512, 512]          136
│    └─Conv2d: 2-35                                [1, 1, 512, 512]          5
│    └─Sequential: 2-36                            [1, 1, 512, 512]          --
│    │    └─Identity: 3-39                         [1, 1, 512, 512]          --
│    │    └─Sequential: 3-40                       [1, 1, 512, 512]          93
│    │    └─Identity: 3-41                         [1, 1, 512, 512]          --
├─Sequential: 1-15                                 [1, 1, 512, 512]          --
│    └─Sequential: 2-37                            [1, 8, 256, 256]          --
│    │    └─Conv2d: 3-42                           [1, 16, 128, 128]         528
│    │    └─Sequential: 3-43                       [1, 16, 128, 128]         1,488
│    │    └─PatchExpanding: 3-44                   [1, 8, 256, 256]          528
│    └─Sequential: 2-38                            [1, 4, 512, 512]          --
│    │    └─Identity: 3-45                         [1, 8, 256, 256]          --
│    │    └─Sequential: 3-46                       [1, 8, 256, 256]          496
│    │    └─PatchExpanding: 3-47                   [1, 4, 512, 512]          136
│    └─Conv2d: 2-39                                [1, 1, 512, 512]          5
│    └─Sequential: 2-40                            [1, 1, 512, 512]          --
│    │    └─Identity: 3-48                         [1, 1, 512, 512]          --
│    │    └─Sequential: 3-49                       [1, 1, 512, 512]          93
│    │    └─Identity: 3-50                         [1, 1, 512, 512]          --
====================================================================================================
Total params: 406,448
Trainable params: 404,656
Non-trainable params: 1,792
Total mult-adds (M): 474.33
====================================================================================================
Input size (MB): 0.49
Forward/backward pass size (MB): 888.80
Params size (MB): 1.08
Estimated Total Size (MB): 890.37
====================================================================================================
params 0.41M, GFLOPs 1.00

[2026-02-02 22:48:44 Pytorch_CUDA_mix_BCHW_0] (trainer.py 67): INFO Model summary: ==============================================================================================================
Layer (type:depth-idx)                                       Output Shape              Param #
==============================================================================================================
MultiPeriodDiscriminator                                     [1, 1516]                 --
├─ModuleList: 1-1                                            --                        --
│    └─PeriodDiscriminator: 2-1                              [1, 1516]                 --
│    │    └─ModuleList: 3-3                                  --                        (recursive)
│    │    └─ParametrizedConv2d: 3-2                          [1, 1, 758, 2]            3,073
│    └─PeriodDiscriminator: 2-2                              [1, 1516]                 (recursive)
│    │    └─ModuleList: 3-3                                  --                        (recursive)
│    │    └─ParametrizedConv2d: 3-4                          [1, 1, 758, 2]            (recursive)
│    └─PeriodDiscriminator: 2-3                              [1, 1515]                 --
│    │    └─ModuleList: 3-7                                  --                        (recursive)
│    │    └─ParametrizedConv2d: 3-6                          [1, 1, 505, 3]            3,073
│    └─PeriodDiscriminator: 2-4                              [1, 1515]                 (recursive)
│    │    └─ModuleList: 3-7                                  --                        (recursive)
│    │    └─ParametrizedConv2d: 3-8                          [1, 1, 505, 3]            (recursive)
│    └─PeriodDiscriminator: 2-5                              [1, 1515]                 --
│    │    └─ModuleList: 3-11                                 --                        (recursive)
│    │    └─ParametrizedConv2d: 3-10                         [1, 1, 303, 5]            3,073
│    └─PeriodDiscriminator: 2-6                              [1, 1515]                 (recursive)
│    │    └─ModuleList: 3-11                                 --                        (recursive)
│    │    └─ParametrizedConv2d: 3-12                         [1, 1, 303, 5]            (recursive)
│    └─PeriodDiscriminator: 2-7                              [1, 1519]                 --
│    │    └─ModuleList: 3-15                                 --                        (recursive)
│    │    └─ParametrizedConv2d: 3-14                         [1, 1, 217, 7]            3,073
│    └─PeriodDiscriminator: 2-8                              [1, 1519]                 (recursive)
│    │    └─ModuleList: 3-15                                 --                        (recursive)
│    │    └─ParametrizedConv2d: 3-16                         [1, 1, 217, 7]            (recursive)
│    └─PeriodDiscriminator: 2-9                              [1, 1518]                 --
│    │    └─ModuleList: 3-19                                 --                        (recursive)
│    │    └─ParametrizedConv2d: 3-18                         [1, 1, 138, 11]           3,073
│    └─PeriodDiscriminator: 2-10                             [1, 1518]                 (recursive)
│    │    └─ModuleList: 3-19                                 --                        (recursive)
│    │    └─ParametrizedConv2d: 3-20                         [1, 1, 138, 11]           (recursive)
==============================================================================================================
…
